Date: Tue Jan  6 15:46:24 CST 2026
Host: gpu01
Directory: /share/home/hhq/superhugeaadpublic
==========================================================================================
Layer (type:depth-idx)                   Output Shape              Param #
==========================================================================================
SimpleCNN                                [1, 128, 5]               --
├─Sequential: 1-1                        [1, 128, 5]               --
│    └─Rearrange: 2-1                    [1, 1, 128, 64]           --
│    └─ZeroPad2d: 2-2                    [1, 1, 144, 64]           --
│    └─Conv2d: 2-3                       [1, 5, 128, 1]            5,445
│    └─ReLU: 2-4                         [1, 5, 128, 1]            --
│    └─Reduce: 2-5                       [1, 128, 5]               --
==========================================================================================
Total params: 5,445
Trainable params: 5,445
Non-trainable params: 0
Total mult-adds (Units.MEGABYTES): 0.70
==========================================================================================
Input size (MB): 0.03
Forward/backward pass size (MB): 0.01
Params size (MB): 0.02
Estimated Total Size (MB): 0.06
==========================================================================================
==========================================================================================
Layer (type:depth-idx)                   Output Shape              Param #
==========================================================================================
Sequential                               [1, 2]                    --
├─Reduce: 1-1                            [1, 5]                    --
├─Linear: 1-2                            [1, 64]                   384
├─Sigmoid: 1-3                           [1, 64]                   --
├─Linear: 1-4                            [1, 2]                    130
==========================================================================================
Total params: 514
Trainable params: 514
Non-trainable params: 0
Total mult-adds (Units.MEGABYTES): 0.00
==========================================================================================
Input size (MB): 0.00
Forward/backward pass size (MB): 0.00
Params size (MB): 0.00
Estimated Total Size (MB): 0.01
…
