Date: Tue Jan  6 17:31:14 CST 2026
Host: gpu01
Directory: /share/home/hhq/superhugeaadpublic
==========================================================================================
Layer (type:depth-idx)                   Output Shape              Param #
==========================================================================================
SimpleCNN                                [1, 128, 32]              --
├─Sequential: 1-1                        [1, 128, 32]              --
│    └─Rearrange: 2-1                    [1, 1, 128, 64]           --
│    └─ZeroPad2d: 2-2                    [1, 1, 144, 64]           --
│    └─Conv2d: 2-3                       [1, 32, 128, 1]           34,848
│    └─ReLU: 2-4                         [1, 32, 128, 1]           --
│    └─Reduce: 2-5                       [1, 128, 32]              --
==========================================================================================
Total params: 34,848
Trainable params: 34,848
Non-trainable params: 0
Total mult-adds (Units.MEGABYTES): 4.46
==========================================================================================
Input size (MB): 0.03
Forward/backward pass size (MB): 0.03
Params size (MB): 0.14
Estimated Total Size (MB): 0.20
==========================================================================================
==========================================================================================
Layer (type:depth-idx)                   Output Shape              Param #
==========================================================================================
Sequential                               [1, 2]                    --
├─Reduce: 1-1                            [1, 32]                   --
├─Linear: 1-2                            [1, 64]                   2,112
├─Sigmoid: 1-3                           [1, 64]                   --
├─Linear: 1-4                            [1, 2]                    130
==========================================================================================
Total params: 2,242
Trainable params: 2,242
Non-trainable params: 0
Total mult-adds (Units.MEGABYTES): 0.00
==========================================================================================
Input size (MB): 0.02
Forward/backward pass size (MB): 0.00
Params size (MB): 0.01
Estimated Total Size (MB): 0.03
…
