Start running Model 2...
Date: Tue Jan  6 16:11:20 CST 2026
Directory: /share/home/hhq/superhugeaadpublic
==========================================================================================
Layer (type:depth-idx)                   Output Shape              Param #
==========================================================================================
LSM_CNN                                  [1, 128, 320]             --
├─Sequential: 1-1                        [1, 128, 320]             --
│    └─Sequential: 2-1                   [1, 1, 128, 8, 8]         --
│    │    └─EinMix: 3-1                  [1, 64, 128]              4,736
│    │    └─BatchNorm1d: 3-2             [1, 64, 128]              128
│    │    └─ELU: 3-3                     [1, 64, 128]              --
│    │    └─Dropout: 3-4                 [1, 64, 128]              --
│    │    └─Rearrange: 3-5               [1, 1, 128, 8, 8]         --
│    └─Sequential: 2-2                   [1, 5, 128, 8, 8]         --
│    │    └─Sequential: 3-6              [1, 5, 128, 8, 8]         600
│    └─Rearrange: 2-3                    [1, 128, 320]             --
==========================================================================================
Total params: 5,464
Trainable params: 5,464
Non-trainable params: 0
Total mult-adds (Units.MEGABYTES): 4.84
==========================================================================================
Input size (MB): 0.04
Forward/backward pass size (MB): 0.79
Params size (MB): 0.02
Estimated Total Size (MB): 0.85
==========================================================================================
==========================================================================================
Layer (type:depth-idx)                   Output Shape              Param #
==========================================================================================
Sequential                               [1, 2]                    --
├─Reduce: 1-1                            [1, 320]                  --
├─Linear: 1-2                            [1, 64]                   20,544
├─Sigmoid: 1-3                           [1, 64]                   --
├─Linear: 1-4                            [1, 2]                    130
==========================================================================================
Total params: 20,674
Trainable params: 20,674
Non-trainable params: 0
Total mult-adds (Units.MEGABYTES): 0.02
==========================================================================================
Input size (MB): 0.16
Forward/backward pass size (MB): 0.00
Params size (MB): 0.08
Estimated Total Size (MB): 0.25
…
